src/models2/type1_final_model2.pth (torch, 13594 bytes, 2 tensors)

fc.weight f4 [10, 300]
-0.00013419054 0.00066600385 -0.028696125 2.2158514e-05 -0.0025200848 0.005803474 0.0034661666 0.0023245646
0.00025911964 -0.00069511903 -0.0018857229 0.0140952 -0.0045886324 0.0006404635 0.0021442696 -0.0020641848
0.16855855 -0.00031588494 -0.0023322143 -0.007072609 -0.00051358494 -0.026851574 0.00059713057 -0.0005866031
0.0049913335 0.00021711635 -0.0040316167 0.0029758515 -0.034752212 -0.00041067207 -0.00084139564 -0.0673381
0.0022560456 0.0012920065 0.001247206 -0.0011232836 -0.08401658 0.002375208 0.00031413088 -0.016087953
-0.0040185302 -0.0024804533 0.022318615 -0.0003942105 0.14512238 -4.334093e-05 -0.0056951693 6.651767e-05
0.0004863879 0.0025684119 -0.0007661271 0.1649447 -0.0062177796 0.0015870131 5.5147437e-05 -0.008754244
0.0035470582 -0.00042728262 0.0025275734 0.009168081 0.00060596666 0.0009948488 0.0007781102 0.13630073
-0.002256672 0.0028484303 0.0007395891 0.003249658 0.0050144335 -0.002791271 -0.006577585 -0.0044265473
-0.0032880285 -0.0030557828 0.00085607765 -0.0038098886 2.3513598e-05 -0.002596792 -8.748408e-05 -0.0055143405
0.0008876411 -0.00042607106 0.0028007457 0.0005634905 -0.0045440705 -0.008901413 -0.0048812465 -0.004044577
-0.058158122 0.019019442 0.026750533 0.0012395651 0.15980293 0.0010981535 -0.0005992588 0.0006407568
-0.051469017 0.0039114333 -0.041449085 0.002676057 -0.0014669182 0.0014861736 0.0153590655 -0.0026009623
-0.0688652 0.00043341029 0.00038875212 0.0008072148 -0.0027583134 0.008094294 -0.029547349 0.009753809
-0.003207413 0.0028519018 -0.00047694452 0.012247742 -2.7036328e-06 -0.0052538305 -0.014333703 -0.028599996
-0.035827436 0.019690065 0.0011539822 0.00015500914 0.0010687849 -0.04915524 -0.03176042 0.059123695
0.0012900333 -0.0020345657 -0.0025774715 -0.025973195 -0.11598255 0.0001032236 -0.017298188 1.030918e-06
8.091333e-05 0.0007323618 0.001753246 -0.0023623058 0.014784286 0.1371667 0.0035678113 -1.4722406e-05
-0.043956313 0.00024454988 0.15631858 -0.019714596 0.006292302 0.0052472046 -0.019974831 0.0027328029
-0.0014765972 0.009201071 -0.006437435 -6.618525e-05 -0.0055705784 -0.0219612 -0.0881015 2.2392165e-05
-0.00193945 -0.015599457 0.009262909 0.005443721 0.0054895915 0.0012275121 0.008593752 -0.0017233388
0.070743054 0.014133935 -0.005760132 -0.0046926267 -0.0024046488 -0.07217443 -0.002655026 0.015716452
-0.00027791708 0.007367232 0.0003102102 -0.000109409455 -0.0018910437 -0.07040908 -0.015321005 -0.0017316672
-0.05295492 0.004703272 -0.0008643794 -0.0046522175 0.00069624017 0.022164354 0.010399213 -0.088507526
-0.022145372 -0.0038165434 -0.04482814 0.000470517 -0.011747035 0.00164624 0.0915516 -0.0048181196
0.034740284 0.11631371 0.00036711837 -1.5971671e-05 -0.00065340905 -0.0008599667 -0.04640809 -0.009131182
0.004823393 -0.0044969455 -0.06888581 0.0023585337 -0.029428393 -0.037171092 -0.00052942167 0.05001642
0.0060196165 -0.04938576 -0.0031788026 0.0002468424 0.060293943 0.042763907 -0.050395146 -0.04764728
0.0054327766 -0.0024338088 -0.050249297 5.3116735e-05 0.00029445614 -0.048112106 0.050052498 1.1975469e-05
0.012216776 0.017056568 0.105124526 0.010958739 0.008763779 0.14515461 0.0016494332 -5.8817353e-05
7.1558556e-05 0.00019698979 -0.0034547586 -0.082824595 0.0006283313 -0.009158875 -0.004233491 0.000748309
0.009942096 -3.562855e-05 0.0032737995 -0.00024906153 5.4955017e-05 -0.00092498027 -0.012779415 0.006917221
00000000: 80b5 0cb9 c396 2e3a 2314 ebbc 0ce1 b937
00000010: 0228 25bb 122b be3b a028 633b b957 183b
00000020: 73da 8739 a638 36ba 5c2a f7ba 8eef 663c
00000030: 3d5c 96bb c7e4 273a e086 0c3b 4647 07bb
00000040: 9d9a 2c3e 5c9d a5b9 10d8 18bb 58c1 e7bb
00000050: 1aa2 06ba d5f7 dbbc c188 1c3a 45c6 19ba
00000060: 578e a33b baa9 6339 a71b 84bb 8106 433b
00000070: 5658 0ebd 794f d7b9 1b91 5cba 8fe8 89bd
00000080: 2ada 133b 8b58 a93a 4a79 a33a 253b 93ba
00000090: e210 acbd 61a9 1b3b efb1 a439 e2ca 83bc
000000a0: e0ad 83bb 1a8f 22bb 87d5 b63c 0aae ceb9
000000b0: f69a 143e f8c8 35b8 8b9e babb 677f 8b38
000000c0: e101 ff39 cd52 283b ebd5 48ba 43e7 283e
000000d0: 84be cbbb 5303 d03a 1c4e 6738 f66d 0fbc
000000e0: c375 683b e704 e0b9 a5a5 253b b835 163c
000000f0: bcd9 1e3a 9665 823a 17fa 4b3a 6b92 0b3e
00000100: ace4 13bb bbac 3a3b fce0 413a 37f8 543b
00000110: 1e50 a43b c2ed 36bb c888 d7bb 920c 91bb
00000120: f77b 57bb 8743 48bb 666a 603a 53af 79bb
00000130: 113f c537 f12e 2abb a877 b7b8 a4b1 b4bb
00000140: 96b0 683a 4a62 dfb9 b78c 373b 35b7 133a
00000150: 6de6 94bb 3bd7 11bc ddf2 9fbb 5f88 84bb
00000160: 3637 6ebd a9ce 9b3c ef23 db3c e778 a23a
00000170: 61a3 233e ebef 8f3a 9417 1dba 76f8 273a
00000180: 2dd1 52bd 7b2b 803b 84c6 29bd c960 2f3b
00000190: 9b45 c0ba b6cb c23a 97a4 7b3c e874 2abb
000001a0: 3309 8dbd 583b e339 6dd1 cb39 459b 533a
000001b0: d2c4 34bb ee9d 043c 480d f2bc 71ce 1f3c
000001c0: 7633 52bb f9e6 3a3b 690e fab9 c1aa 483c
000001d0: 0f70 35b6 5328 acbb e8d7 6abc 8a4a eabc
000001e0: cabf 12bd 0f4d a13c 3841 973a f389 2239
000001f0: 7816 8c3a 0157 49bd 3717 02bd b02b 723d
00000200: 5616 a93a 5956 05bb ccea 28bb bdc5 d4bc
00000210: 4288 edbd c079 d838 eeb4 8dbc 135e 8a35
00000220: 03b0 a938 f8fb 3f3a 2ccd e53a ead0 1abb
00000230: ca39 723c 6d75 0c3e f1d1 693b 4100 77b7
00000240: 890b 34bd ee36 8039 fa11 203e 8180 a1bc
00000250: a82f ce3b bef0 ab3b 42a2 a3bc d318 333b
00000260: 618a c1ba 17c0 163c 1ef1 d2bb efcc 8ab8
00000270: 6689 b6bb f9e7 b3bc 8f6e b4bd cfd6 bb37
00000280: 2535 feba dd94 7fbc 75c3 173c 3e61 b23b
00000290: 08e2 b33b 79e4 a03a cfcc 0c3c a8e1 e1ba
000002a0: bce1 903d 0592 673c 7dbf bcbb 9bc4 99bb
000002b0: 5097 1dbb 30d0 93bd f2ff 2dbb cabf 803c
000002c0: 66b5 91b9 d268 f13b b5a3 a239 c172 e5b8
000002d0: e6dc f7ba a332 90bd f404 7bbc 1cf9 e2ba
000002e0: 42e7 58bd e81d 9a3b 8597 62ba a171 98bb
000002f0: e383 363a 0592 b53c 7661 2a3c 6f43 b5bd
00000300: 366a b5bc f91e 7abb b69d 37bd b9af f639
00000310: a376 40bc a6c6 d73a 687f bb3d 51e1 9dbb
00000320: d44b 0e3d e235 ee3d cb79 c039 e7fa 85b7
00000330: 8a49 2bba 636f 61ba 6916 3ebd f49a 15bc
00000340: 8e0d 9e3b 1d5b 93bb 0114 8dbd a191 1a3b
00000350: d013 f1bc b740 18bd e3c8 0aba 05de 4c3d
00000360: 3440 c53b b948 4abd 7553 50bb a06a 8139
00000370: c8f6 763d 3529 2f3d 246b 4ebd cb29 43bd
00000380: 6f05 b23b 8980 1fbb 35d2 4dbd a9c9 5e38
00000390: 3c61 9a39 3311 45bd d903 4d3d 3fea 4837
000003a0: df28 483c 37ba 8b3c 874b d73d 488c 333c
000003b0: f495 0f3c 69a3 143e cb31 d83a a7b2 76b8
000003c0: b511 9638 0b8f 4e39 3b69 62bb f19f a9bd
000003d0: 9ab6 243a 1b0f 16bc 19b9 8abb 2b2a 443a
000003e0: 2ce4 223c dd6f 15b8 3e8d 563b 7994 82b9
000003f0: 807f 6638 607a 72ba c060 51bc dba9 e23b

fc.bias f4 [10]
-0.017665941 0.055850614 0.039543428 0.03642395 -0.04226999 -0.006369477 -0.035079267 -0.016023856
-0.021790903 0.006724379
00000000: 2ab8 90bc 9dc3 643d 4af8 213d 4831 153d
00000010: 4c23 2dbd 0cb7 d0bb 47af 0fbd 7644 83bc
00000020: d682 b2bc 2e58 dc3b
