src/models/even_to_all_final_model2.pth (torch, 13694 bytes, 2 tensors)

fc.weight f4 [10, 300]
000000 38 50 ac bb 62 71 fd ba b7 74 63 3b c5 ad 23 ba
       -0.0052585863 -0.0019336159 0.0034707019 -0.000624385
000010 d3 7a f6 ba e5 28 11 3c 6e d0 69 b9 39 f4 18 3d
       -0.0018804915 0.008859848 -0.00022298258 0.037342284
000020 48 11 11 39 86 ad c2 ba 30 55 04 3c 86 88 47 3e
       0.00013834715 -0.0014852739 0.008076951 0.19485673
000030 3e 4e 8a 3d 9c cd 8f 3b f8 13 74 3a 63 86 f1 3a
       0.06753205 0.004388524 0.0009310837 0.0018426891
000040 d4 7d 68 3d 5d 8f 9b 3b 1f 07 b0 3d 65 ce 76 b9
       0.056760624 0.004747315 0.08595108 -0.00023537276
000050 4c a3 69 bb 13 4e 04 3b b1 68 b7 bb ff dc 2e 3a
       -0.003565031 0.0020188137 -0.005597197 0.0006670504
000060 ef ec 19 3b e8 14 65 bb f6 ea 0d b9 b2 b0 74 bb
       0.002348717 -0.0034955088 -0.00013534338 -0.0037336764
000070 53 74 bd 3b e4 f3 e1 ba 5a b5 6d bb fb 96 7e 3a
       0.005781689 -0.0017238823 -0.0036271424 0.0009711829
000080 c5 19 3a be f8 c8 00 ba 8f c9 88 3a df 08 29 3c
       -0.18173893 -0.0004912759 0.0010436046 0.010317056
000090 7a b5 c1 bb 27 c2 48 39 b9 4c 38 3b 6a 71 8c 3d
       -0.0059115263 0.00019145814 0.0028121902 0.068575695
0000a0 f8 1e d3 ba 40 fb af bd a2 cc 5f bc 4c 57 6c 3b
       -0.0016107252 -0.08592844 -0.013659628 0.0036062775
0000b0 92 e4 1e 3b fe 1f 96 39 95 57 b2 3b 6c 6e 45 3b
       0.0024245125 0.00028634066 0.0054425695 0.003012563
0000c0 b7 20 e6 ba 73 bd 22 bc 4a 6a 02 bd 59 cf 98 3b
       -0.0017557357 -0.0099328635 -0.031839646 0.0046633896
0000d0 15 cd 90 ba 93 65 1e 38 49 6a 96 3a 78 f6 d1 39
       -0.0011047447 3.7764734e-05 0.0011475767 0.0004004722
0000e0 8c 3c 88 3b d2 2e 96 bb a4 9a d4 ba 30 e7 a4 3a
       0.0041576084 -0.004583218 -0.0016220403 0.0012581106
0000f0 d4 02 6c ba 7f e4 b6 38 2f d8 62 3c e8 25 ae bc
       -0.0009003107 8.720997e-05 0.0138454875 -0.02125831
000100 76 08 1a 3b 8c f8 b6 3a 2d 56 40 3c f3 2d 12 3a
       0.0023503578 0.0013959571 0.011739296 0.0005576305
000110 a9 88 81 ba 8f 13 cf bc 75 e3 86 3d 97 42 fd bd
       -0.0009882647 -0.025277881 0.06586353 -0.12366217
000120 f2 8b c8 3a b2 03 42 3b 48 50 42 ba 19 bd c7 3b
       0.0015300496 0.0029604253 -0.00074124755 0.0060955402
000130 42 f5 2a b9 0a 29 7a bc d4 7a e8 ba 0f 45 0a bc
       -0.00016303829 -0.015268574 -0.0017736801 -0.008439316
000140 d4 02 11 39 89 ac 97 3d 48 6c 8e bc 76 48 d7 bc
       0.00013829331 0.07405955 -0.017385617 -0.02627967
000150 ab fe 23 bc fb 81 82 3d 21 d3 9e ba 6d cd 98 bc
       -0.010009448 0.06372448 -0.0012117365 -0.018652642
000160 2c b0 16 bb f8 04 14 3b d7 68 ce b9 ec dc 0b b9
       -0.002299319 0.002258597 -0.00039369494 -0.00013338373
000170 82 d5 19 bd ca ae e1 ba 61 58 26 bb 99 fc 64 3e
       -0.037557133 -0.0017218229 -0.0025382268 0.22361983
000180 bd e6 8c bd b8 9a 88 3c 24 6a 1e 3e b7 44 50 bb
       -0.06879947 0.016675338 0.15470177 -0.0031779238
000190 da db c0 b9 4d 40 53 bb d6 48 aa 3a 29 89 48 ba
       -0.00036784896 -0.0032234371 0.0012991678 -0.0007649833
0001a0 cd 73 bd bb ca be 00 3e 96 c4 80 bb cc 90 b0 3d
       -0.005781627 0.1257278 -0.003929685 0.08621368
0001b0 4e 37 07 3a 1c d6 9f bb 47 28 14 3c 0c 57 0d bb
       0.00051580823 -0.0048778187 0.009042806 -0.0021566777
0001c0 39 2b dc ba ea 3f f5 3b ba f0 1a 39 86 62 8b b9
       -0.0016797549 0.007484426 0.00014776262 -0.00026585552
0001d0 0b ee c3 bc 59 2e b6 3c 91 f4 16 bc 78 e8 a7 bc
       -0.023917219 0.022238897 -0.009213583 -0.020496592
0001e0 14 de f8 b9 7b 5a c5 39 fc 42 25 ba c2 5a e4 39
       -0.00047467707 0.0003764218 -0.0006304232 0.0004355517
0001f0 ba 8b 81 3c 9a 43 00 bc cb 17 47 bd 5f 90 b9 bb
       0.015813697 -0.0078286175 -0.048606675 -0.0056629623
000200 37 80 02 3b e7 65 11 3b 53 c2 d0 3c 78 74 9e 3d
       0.0019912848 0.0022185983 0.025483286 0.077370584
000210 f8 c6 b7 3d 33 32 81 3d 3d 62 e1 bd 5b 41 2f bb
       0.08973497 0.06308403 -0.110050656 -0.0026741836
000220 3e db a9 3d 74 2b 81 bc d1 f6 93 3b 4c 9f 30 ba
       0.0829377 -0.01576779 0.004515507 -0.0006737604
000230 63 f5 3f 3c 43 d4 ec bc 80 ca 0e 38 ac e0 34 3b
       0.01171622 -0.028909808 3.404403e-05 0.0027599735
000240 9a ba c6 ba 16 1e 23 bb 85 05 c8 b7 81 eb 86 b9
       -0.0015161813 -0.0024889759 -2.3844428e-05 -0.00025733936
000250 ff 94 4d 3d fd 90 a3 3a 47 7f f3 ba 55 ae 93 3c
       0.050190922 0.0012479123 -0.001857736 0.018027464
000260 f5 90 04 3b a1 3a 2f 3b 0d a6 ea 39 22 94 e3 ba
       0.0020228003 0.0026737826 0.00044755675 -0.0017362873
000270 6e 43 51 bd c7 22 00 ba 7b 32 bd ba 46 76 88 b9
       -0.051089697 -0.0004887995 -0.00144346 -0.00026028062
000280 95 2c 76 3b c4 60 1a 3c 8b 01 0e bc d3 c8 60 bb
       0.0037563194 0.009422485 -0.00866736 -0.0034299388
000290 64 32 23 bd 7d 32 58 3a 24 a9 86 bd d8 1a 9d 3c
       -0.039842978 0.00082472694 -0.0657523 0.01917784
0002a0 90 bc 25 be b4 5f 19 bc 46 37 15 3c cd c1 4f bd
       -0.16185212 -0.009361196 0.0091074165 -0.050721932
0002b0 b4 5e fe 3b a3 92 1e 3e f4 c8 ca bb 9b ff 7c 3d
       0.0077627543 0.15485625 -0.0061885063 0.061767202
0002c0 fc 58 02 3c 23 43 3f bc 46 5a d2 3a 04 ae 90 bd
       0.007955786 -0.0116737215 0.0016048632 -0.07064441
0002d0 75 82 4e bb c2 7c ac bb ba df 23 3a da 3c 0e be
       -0.0031510864 -0.0052638957 0.00062512944 -0.138904
0002e0 c8 74 6e 3d eb 09 d3 3a ff 22 e2 b9 f6 77 2e 3a
       0.05821684 0.0016100978 -0.00043132153 0.0006655449
0002f0 5a e5 f9 ba 51 8b 0d ba ec e2 eb bb ab 48 39 bb
       -0.0019065544 -0.0005399483 -0.007198682 -0.0028272073
000300 a5 e9 73 bb 82 3d 92 b9 c2 2d 16 bb 4a 9b 37 b9
       -0.003721812 -0.00027893117 -0.0022915457 -0.0001751009
000310 db 0f 8e bc 6f cd 00 bb d7 89 b7 b6 83 bb dc bb
       -0.017341545 -0.0019653698 -5.4698717e-06 -0.0067362203
000320 6c 00 90 3b 1d 71 15 bb 9f c9 7d 3d be d1 a7 3c
       0.0043945815 -0.0022803016 0.06195986 0.020485755
000330 25 e5 ef 3a 75 c0 8e 3b 6e 6f 93 3c 8c c6 ec 3d
       0.0018302543 0.0043564388 0.01799747 0.11561307
000340 62 11 bc b9 4f 48 11 3c 2e 7d 01 3b 00 0a 0f 3b
       -0.00035871106 0.008867337 0.001975845 0.0021826029
000350 f0 58 96 3b 72 de 82 b9 0e 27 92 b9 af 75 85 bc
       0.004588239 -0.00024961267 -0.00027876388 -0.016291467
000360 70 91 36 bb 46 4d c0 3a 5f e6 91 ba 15 94 42 3a
       -0.0027857684 0.0014671467 -0.0011131278 0.00074225786
000370 c5 6e 86 3b f8 c1 97 bb 61 da d3 38 62 39 3e ba
       0.00410256 -0.004631277 0.0001010194 -0.00072564755
000380 65 e7 99 bb df 58 58 3a 70 77 c0 bb 97 b4 dd bb
       -0.004696774 0.0008252989 -0.005873613 -0.0067659128
000390 00 c4 3d bd 57 7f 65 bb a8 91 3d ba 50 1f e0 3a
       -0.0463295 -0.0035018527 -0.00072314823 0.0017099176
0003a0 a7 3e 4f 3b 64 23 4b bb cf 3c 01 ba fc b2 21 bc
       0.0031623037 -0.0030996436 -0.00049300207 -0.009869333
0003b0 40 58 da ba 65 70 87 bc 4f 3d 5b 3c 78 b4 de 3a
       -0.0016658381 -0.016533086 0.013381316 0.001699104
0003c0 7c 19 fd ba f1 b5 ae 3b 61 b0 a0 3b 75 18 02 3c
       -0.0019309963 0.0053317477 0.0049038385 0.007940401
0003d0 00 93 2f 3b 73 40 d8 bb ef c9 fc 3a 93 1a 7a 3b
       0.00267905 -0.00659948 0.0019286255 0.0038162812
0003e0 a6 65 b1 3b f6 c7 4d bd ab ec d8 b9 28 3e 17 3e
       0.0054137288 -0.050239526 -0.00041375062 0.14769804
0003f0 47 c8 3e ba fb 69 16 3c 8b 06 50 3d da 24 0d 3c
       -0.00072777685 0.009180541 0.05078749 0.008614743

fc.bias f4 [10]
000000 94 fe c7 bc e9 90 03 bd 10 f5 19 3c 39 70 2f 3c
       -0.024413384 -0.03212062 0.009396806 0.010707908
000010 fe 60 f1 3c 4a a3 2b bc d3 c9 71 3b 67 2a 8c bc
       0.029465195 -0.010475943 0.0036893978 -0.017110063
000020 ff d2 ab 3b cc 3f cf 3c
       0.0052436586 0.025298975
