src/models/type2_final_model2.pth (torch, 13594 bytes, 2 tensors)

fc.weight f4 [10, 300]
000000 af 6b 5b ba d2 a8 03 bc 3c 13 29 bd 92 fd cb b4
       -0.0008370233 -0.008035855 -0.04127811 -3.7996193e-07
000010 28 58 70 bd 7f e5 c6 3c 9e 2f a5 3a 69 3f e6 3b
       -0.058677822 0.024279354 0.0012602692 0.007026602
000020 e6 60 da 39 f8 d0 1e b7 aa ae c5 bb be 01 a5 3c
       0.00041652395 -9.466188e-06 -0.0060327845 0.020142432
000030 30 23 f3 38 61 59 e0 ba 26 54 e0 3b 98 99 bb bc
       0.00011593697 -0.0017116481 0.006845969 -0.022900388
000040 ae 3c f1 bc 96 8f 83 38 34 0c 76 bd cf 1f a9 ba
       -0.02944788 6.273312e-05 -0.06007023 -0.0012903156
000050 dd 86 9a 3a ff 0a b9 ba 04 39 a2 ba a2 45 95 ba
       0.001178946 -0.0014117657 -0.0012376611 -0.001138855
000060 1c 4e 2c 3b 29 3d ff b7 30 33 26 bb d5 c8 01 bc
       0.0026291674 -3.0426849e-05 -0.00253601 -0.007921417
000070 07 33 6a b9 6d a4 33 bb 03 47 4b 3c 9b 76 ea 3c
       -0.00022334988 -0.0027411238 0.012407067 0.028621009
000080 37 2f 90 39 47 b2 f7 bc 82 0e ba bb 2a d2 d8 3a
       0.00027500998 -0.030236376 -0.005677999 0.0016542126
000090 5a 62 77 bb 72 a2 87 bb 21 2e 1d bb df fd c8 3d
       -0.003774783 -0.004139238 -0.0023983794 0.09814047
0000a0 76 06 dc 3d d6 4f cf bb 53 af 12 ba 3a fc ce bb
       0.1074342 -0.006326656 -0.00055955834 -0.006316689
0000b0 5b 62 2b ba e7 65 0f 3b 66 50 9a bd 52 35 d8 3b
       -0.00065377884 0.0021880807 -0.07534866 0.006598153
0000c0 d0 5b aa b9 b7 d2 e9 b9 be ea 71 3c d6 de d1 b9
       -0.00032493332 -0.00044598218 0.01476544 -0.00040029612
0000d0 c4 bb 0b 3a 17 79 31 b9 9d 1e b1 ba 99 78 c2 3b
       0.00053304085 -0.00016925145 -0.0013513152 0.0059347865
0000e0 35 32 55 3c 6c ed 29 ba 71 50 10 3b 02 0a ee ba
       0.013012459 -0.0006482217 0.0022020603 -0.0018160942
0000f0 31 7b 05 3d 2f 6a ef 3a 3c 25 8e bc f9 a1 b8 b9
       0.032588188 0.0018265898 -0.01735174 -0.00035215894
000100 ee 53 9a bd 06 dc 6b bd 17 b1 fa bc 23 ce 09 3e
       -0.075355396 -0.057582878 -0.030602021 0.13457541
000110 6a d2 cf 3a 0b bd e7 b8 90 5c c6 ba c4 2c 42 3b
       0.0015855555 -0.0001105015 -0.0015133787 0.0029628733
000120 15 0b a0 bb 81 64 8c 39 cd 69 17 3b 5f a7 fd bb
       -0.0048841336 0.00026777762 0.0023103834 -0.0077408995
000130 ee 1e ce ba 34 f1 d1 bb 4e fc 3a 3d 17 0a a0 bc
       -0.001572577 -0.0064069275 0.045650773 -0.019536061
000140 da 50 10 3b af 53 e4 bb 12 7d 15 bd 17 7a b5 39
       0.0022020848 -0.0069679837 -0.03649623 0.00034613974
000150 57 1a 8a bc 70 d0 ba bb e0 3d 53 3a 81 be 37 3c
       -0.016858263 -0.005701117 0.00080582313 0.011214853
000160 d9 5c 86 3b 08 68 92 3b da ff 4c bb 67 a4 57 38
       0.004100424 0.004467968 -0.003128043 5.1413106e-05
000170 cc a9 06 3c fb 2e 8a 3b 3e 69 cd 3d 15 7f e1 3b
       0.008219194 0.0042170263 0.10029839 0.0068816044
000180 09 07 0b 3b 6c 4f b1 bb 2e ab ac 3b da 5d 66 b9
       0.002121391 -0.005411079 0.0052694296 -0.00021969472
000190 96 01 c5 ba bb e6 a4 bc 4a de bc 3d cc be 18 bc
       -0.001503038 -0.020129552 0.09222086 -0.009322833
0001a0 3a 4a 95 3c a8 84 40 3b 42 44 c1 3a 87 2e 87 3c
       0.01822387 0.0029375944 0.0014745074 0.016501678
0001b0 6f 90 a5 3c 1f c8 c4 3a ea 0f 9a b7 b9 58 00 39
       0.020210473 0.0015013254 -1.8365641e-05 0.00012240083
0001c0 93 af a3 3b 27 49 ad bb 21 26 57 3a 0b a7 00 3c
       0.0049952953 -0.0052882615 0.0008207281 0.007852326
0001d0 4c 19 34 bb 44 41 87 ba a6 72 06 ba 85 12 16 3b
       -0.0027480898 -0.0010319133 -0.0005128778 0.0022899222
0001e0 ec cc d2 bd 94 27 3e 3c 7f cd 50 3a ff 0d b4 3b
       -0.10292992 0.011606116 0.00079651916 0.0054948325
0001f0 db 63 03 bd 0a c9 33 3b 6f f0 68 3b 96 83 b3 ba
       -0.03207765 0.002743306 0.00355437 -0.0013695832
000200 3f 26 6e bb 0e e5 9d b9 7c cb e6 b8 b8 e6 38 ba
       -0.0036338714 -0.00030116033 -0.000110051566 -0.0007053423
000210 e5 7f 47 ba 01 19 19 3c 7e 4c b5 bd a5 0c a6 bb
       -0.00076103053 0.00934434 -0.0885248 -0.0050674253
000220 5f 74 b1 bb 91 5f 78 3a d5 8f 1e ba 04 e1 6b b9
       -0.005415484 0.000947469 -0.00060486543 -0.00022495171
000230 52 2c 7b bd f7 b2 ef bb 7f 13 50 3a 18 37 90 b9
       -0.061321564 -0.0073150354 0.00079374755 -0.00027506868
000240 62 c1 e0 ba c2 44 2f bc 34 a6 37 bb c9 cb 8c 3a
       -0.0017147476 -0.0106975455 -0.0028022649 0.0010741885
000250 65 99 a6 3c 4e 04 aa bb eb 0f d0 bb b4 0b a3 3b
       0.020336816 -0.0051885014 -0.006349554 0.0049757604
000260 4f 95 37 ba e0 a6 19 bd b3 73 d5 b9 d9 15 64 bb
       -0.0007003145 -0.03751266 -0.00040712729 -0.0034803061
000270 d1 43 c5 bc 3d 3d 77 3d c6 b9 8d 3d 93 c3 4f 3b
       -0.024080189 0.060361136 0.06920199 0.0031702265
000280 e5 5d db 3b ee 86 8f 3d 8c bb aa b9 75 85 4c bb
       0.0066945427 0.07008158 -0.0003256466 -0.0031207476
000290 9d 91 05 3c 0e f4 99 3b 13 5a 8f bb 41 9f 2c 3c
       0.008152393 0.004698283 -0.0043747514 0.010536016
0002a0 3a c4 13 3c b9 e7 75 bd 01 2e de 3d 2a f7 24 bc
       0.009018952 -0.06003544 0.10848618 -0.010068694
0002b0 92 66 85 3a ed 0e 2c ba 06 44 05 bb e8 b6 19 bc
       0.0010177663 -0.00065635034 -0.0020334735 -0.009381987
0002c0 b4 61 68 3c 17 94 0d 37 43 2e 1c 3d 1e 32 26 3c
       0.0141834505 8.438735e-06 0.038130056 0.010143785
0002d0 22 e3 af 3b 0a 84 9e bd a8 0a cc 3c cb a9 2c b9
       0.0053676525 -0.07740028 0.024907425 -0.00016466451
0002e0 8e 31 7d bd f3 d6 d9 bc b9 ea e5 b8 b8 51 6a bb
       -0.061814837 -0.026591754 -0.000109632914 -0.0035754275
0002f0 b7 a1 96 3c 03 01 3f 3d 79 90 cd 3c a4 06 55 3b
       0.018387659 0.046631824 0.025093304 0.0032505179
000300 80 24 a4 bb c9 c9 24 3b d4 69 eb bc 14 73 98 3d
       -0.005009234 0.0025144687 -0.028736986 0.074438244
000310 b1 19 b2 bb af bb 13 bb 94 7d 85 3a ad b5 95 3b
       -0.0054351916 -0.0022542288 0.001018452 0.0045687766
000320 d6 73 ff bc bd 40 07 bb 3d 94 4b 3c d3 e5 37 bd
       -0.031183165 -0.0020637952 0.0124254795 -0.04489691
000330 42 af 22 ba a7 a1 79 b8 2e 8a 8b b9 36 fc 86 ba
       -0.0006205925 -5.9516777e-05 -0.00026615098 -0.0010298553
000340 1d 92 1a 3b f9 7e 44 3b 87 df a7 bb 96 ec 4e bd
       0.0023585625 0.0029982908 -0.005123082 -0.050518595
000350 b2 0e 08 bc 43 84 a4 3c e4 27 21 bd 7c 50 80 3b
       -0.008304285 0.020082599 -0.039344683 0.0039158445
000360 90 b5 12 ba 82 29 b1 3a 49 69 34 b9 95 87 c6 bb
       -0.0005596513 0.0013516399 -0.0001720536 -0.006058643
000370 51 98 c1 3a e2 06 9a 3b 21 78 a0 3b df 76 64 bd
       0.0014770125 0.0047005275 0.004897133 -0.055777427
000380 5c 5b e7 bc 2a b3 01 bd d3 84 1c bc 60 7f 09 3d
       -0.028241806 -0.031665005 -0.009553152 0.03356874
000390 6f 73 eb b9 c6 69 99 ba 8b 47 97 b9 b3 f6 6d b9
       -0.00044908698 -0.0011704497 -0.00028854268 -0.00022693984
0003a0 af eb 1b 3a 50 e4 b9 3d cd dd 05 bd 13 34 f2 b8
       0.00059479004 0.0907675 -0.03268223 -0.00011549159
0003b0 21 85 79 bd 99 57 88 bb 99 ba 90 3d db df 1f 3c
       -0.060917977 -0.004160833 0.07066841 0.009757961
0003c0 11 e7 80 3b 3b 1b 62 3c 33 13 3f b9 b8 84 f8 3b
       0.0039337953 0.013800438 -0.00018222332 0.0075841807
0003d0 e1 19 d3 3a 65 a8 e4 39 ef 5d d3 3b 21 a1 e9 b9
       0.0016105735 0.00043613013 0.0064504067 -0.00044561274
0003e0 fd 36 02 bd 94 fb 9c b9 6d 0f 8e 3d 43 24 83 3a
       -0.031790722 -0.0002994208 0.06936536 0.0010005314
0003f0 74 ed 53 3b 50 5b ca bc e3 e1 ee 3b d6 47 35 39
       0.0032337578 -0.024701744 0.0072901114 0.00017288266

fc.bias f4 [10]
000000 ad 97 a8 bc dd 03 50 bd 76 1d df 3c 4b d0 79 bc
       -0.020580137 -0.050784934 0.027235728 -0.015247415
000010 fb f1 fe bc f9 26 1e 3d 12 08 1b bd 99 2f f3 bc
       -0.031121245 0.038611386 -0.037849493 -0.029685782
000020 55 c3 c8 3d da 10 a9 3c
       0.09802882 0.020637918
